examples/python/03_mlp_regression/weights/mlp_weights.npz (npz, 39904 bytes, 7 tensors)

W1 (column-major) f4 [128, 8]
00000000: a1c4 f0bc 7ad0 7d3e 7f30 f83c db28 903d
00000010: 7e2b 8fbe d6c3 12bb a2a6 98be fa02 403e
00000020: 9f02 1e3e 7a0c d03d 3bc9 ffbd 8933 883e
00000030: afe8 8f3e 2574 d5bd 2227 69bd d3ce 90be
00000040: 5cee 8ebd 4385 e33d 3d68 78be 834c 8b3d
00000050: efee aa3c 62c8 80be 2399 40be 8908 873d
00000060: ee20 ad3a ba71 2d3e 2cd8 a3bd a878 0a3c
00000070: 957c a23d d3f9 09be 3c9a 193d c128 99bd
00000080: 7053 cfbd f6d0 843e ac91 473e e904 503e
00000090: 8bf3 dabc 3a18 21be a77f 94bc 1d7e dbbb
000000a0: e333 9abe 84d1 633d df56 f2bd 0060 373e
000000b0: 5edc bfbc 8879 083e 1fb9 78bd 2108 c63c
000000c0: eafc a6bd a57c b7be 9b15 193e f893 e13d
000000d0: 32b3 2d3e 1b8f f93d e07a 473d 7c5c 3d3e
000000e0: cbb0 41be e73c adbe 8141 e1bd 4be7 733b
000000f0: 5c0f 52bc 151e 62b9 a46f bc3d 3a6c 24bc
00000100: 1e8f edbd 9591 a93d 2a54 fabd b5b0 dc3d
00000110: 02b2 4fbd a9ab e33d a95e 363e a298 debd
00000120: 79e0 72bd b96a a33d e951 e93c dfe5 4b3e
00000130: c993 643e b9dd eebd 097a fbbb d580 c1bc
00000140: a6e5 233e 2f76 84bd 138a 86ba 5850 a0bd
00000150: d489 813c b73a 75bd ff6f 013e 72f8 8e3d
00000160: bcfc b33d a089 8cbd e35b b3bd 745d 043e
00000170: 45a0 0c3e 133d 873d 1cc3 363e 49f2 85bb
00000180: 7702 193d d124 0ebd 1f3d f3bd 5e17 0fbd
00000190: 1cfc 24be 0f81 0c3e f6d2 02be 09f7 833a
000001a0: b631 193e 642a 073b ac06 033d 4761 3b3e
000001b0: 3731 0fbe 3011 d8bd a8bf bcbd 1092 84bc
000001c0: c7d6 613e 1037 0d3e 30a5 7cbb 2fc4 323e
000001d0: 90be 683e c050 74bd 5e2a 1b3e d627 6e3d
000001e0: 4bb3 033e e600 703e c45e c5bd bf18 f6bd
000001f0: 32d7 9fbc 1571 803c 4112 573e e778 603e
00000200: b7d4 18be 048d 663d 8c64 3fbd b50d 41bd
00000210: 580f 7ebe 5d82 893d caa6 843e f16c 3a3b
00000220: e2f7 943d b30e 9b3d 0236 1cbd 0d20 003e
00000230: 22b9 1f3e 2552 24be 1bed 05bb 0d25 c1bc
00000240: 9864 8fbd af9e ffbd 7ae9 12bd 5a8e 27bd
00000250: e554 2cbe 13b0 a6bd 3029 3a3e 4c1b 16be
00000260: 54ad 48bd 0720 ff3d d052 093e 40ca 3abd
00000270: cf6a d03d ca28 233e 0d37 5bbd ebe8 053d
00000280: 0f81 f4bc c28f 093d fa53 ea3d 5b68 593d
00000290: cc6a fcbd e542 103e 51ae c2bd b04e 3ebd
000002a0: d7a3 c2be 552c 5f3c 1981 2fbc 0abc 2abe
000002b0: 9a0e 87bb 6cca dcbd 7563 b33b e6a0 e0bd
000002c0: 4f8b e4bc dc37 8a3b d724 fa3d 5f1e a5bd
000002d0: bfa9 d3bc 146d 89bc 18ce 123e e550 313e
000002e0: b414 acbd 68cc 013e 7289 583e 5a1e 1f3d
000002f0: 9ae6 5f3d e69d ed3b 40b9 65bd b1f6 0e3e
00000300: e327 313e dfe0 2f3e 8b72 83bd f54a 65bc
00000310: b8be 113e c38d 593e 3331 863e 5b75 053e
00000320: 7730 243d e033 3dbe 036f 72be a52e 833e
00000330: c045 4d3d 86c8 94be 9343 40be 9e5f 563c
00000340: 5ed2 1dbd d8ce 22bd d6a3 f03c b71c 1f3e
00000350: 1a0c d23b 47c4 f3bd 63b1 34bb 775b 61be
00000360: d2ae 99bc 4250 1f3e f7e7 a93d 8e79 d43d
00000370: c716 e73d 82eb 53bc c3c7 9ebd 8c81 c3bd
00000380: 74fb 47bd 28b8 93bc 19dc 593e a6fb a7b7
00000390: 3974 433e f72d 0b3e 57ec 303d f154 b73c
000003a0: a0f5 7bbd 1381 94bb 9c0a 133c 13ef a83d
000003b0: e2ee 91bd c32f 87be c4e9 303d e77b 58bb
000003c0: 6fdc 223e f0b6 0f3e 8c43 7a3c 7c47 d43b
000003d0: bd02 c0bd 3bbf 3b3e 7d7e aa3d 3b16 373e
000003e0: 1417 1e3e 7719 163e bec2 cfbc d593 aa3c
000003f0: 6372 0c3e 2f6c 97b9 b768 73be e977 b83d
-0.029390635 0.24786559 0.030296562 0.070390426 -0.2796287 -0.002239456 -0.2981463 0.18751135
0.15430687 0.1015863 -0.124895535 0.26601818 0.2810721 -0.104225434 -0.056922086 -0.28282794
-0.06979057 0.11109402 -0.24258514 0.06801703 0.020865886 -0.2515288 -0.18808417 0.06593425
0.0013208666 0.16937914 -0.08000216 0.008451618 0.079339184 -0.13474207 0.037500605 -0.07478476
-0.10123336 0.25940675 0.19489163 0.20314373 -0.026727458 -0.15731898 -0.018127276 -0.0066983835
-0.3011771 0.05561973 -0.118329756 0.17907715 -0.023420509 0.1332761 -0.06072342 0.024173798
-0.08153708 -0.35837284 0.14949648 0.11014551 0.16962889 0.12185498 0.048701167 0.18492311
-0.18915097 -0.33835527 -0.10998822 0.0037216719 -0.012821045 -0.00021564246 0.09200981 -0.010035569
-0.11599563 0.08279721 -0.12223084 0.10775892 -0.05070687 0.11116726 0.17809547 -0.10868956
-0.059296105 0.0797934 0.02848144 0.19911908 0.22322 -0.11663384 -0.00767446 -0.023621002
0.16005573 -0.06467854 -0.0010264538 -0.07827824 0.015812792 -0.059870448 0.1264038 0.06980981
0.0878844 -0.068621874 -0.087577604 0.12926275 0.13733013 0.06603446 0.17847866 -0.0040877205
0.037355866 -0.03470308 -0.11876892 -0.034934394 -0.16111797 0.13721107 -0.12775788 0.0010068129
0.1496037 0.0020624632 0.031988785 0.18298827 -0.13983618 -0.10550153 -0.09216243 -0.01618293
0.22054587 0.13790536 -0.0038550608 0.1745765 0.22728944 -0.05964732 0.1515288 0.05814346
0.12861364 0.23437843 -0.09637216 -0.12016439 -0.019511793 0.015678922 0.21003057 0.2192112
-0.14924894 0.056286827 -0.04672675 -0.047132213 -0.2481054 0.06714318 0.259085 0.0028446282
0.072738424 0.07571163 -0.038137443 0.12512226 0.15597966 -0.1604696 -0.0020435515 -0.023577238
-0.070016086 -0.12481438 -0.03586719 -0.04090724 -0.1682926 -0.08139052 0.18179774 -0.1465885
-0.048993424 0.124572806 0.13410497 -0.045603037 0.10176622 0.15933529 -0.053519297 0.03269283
-0.029846696 0.033584364 0.114417985 0.053078037 -0.123250574 0.14088018 -0.095059045 -0.04646176
-0.38015625 0.013621409 -0.010711932 -0.16673294 -0.0041216137 -0.107807964 0.0054745027 -0.10968189
-0.027898459 0.0042180847 0.12214058 -0.080624335 -0.025837777 -0.016775645 0.14336431 0.17316015
-0.08402386 0.12675631 0.21146181 0.038847305 0.05466328 0.007251489 -0.05608487 0.13961293
0.17300372 0.17175625 -0.06418332 -0.013994922 0.1423291 0.21245484 0.2620941 0.13033049
0.040085282 -0.1847682 -0.2367516 0.25621524 0.050115347 -0.29059237 -0.18775778 0.01308432
-0.0385307 -0.039748043 0.029374998 0.15538298 0.006410134 -0.11902671 -0.002757155 -0.22007547
-0.018760119 0.1555796 0.08296197 0.10374747 0.11283641 -0.012934567 -0.07752945 -0.095461935
-0.04882379 -0.018032148 0.21275367 -2.0025134e-05 0.19087304 0.13591753 0.04319414 0.02237937
-0.061513543 -0.0045319884 0.008974697 0.08248725 -0.071256414 -0.26403627 0.043191686 -0.0033032836
0.15904401 0.14034629 0.0152748935 0.006478248 -0.09375522 0.18334667 0.08324907 0.17879574
0.15438491 0.14658152 -0.025361415 0.020822445 0.1371551 -0.00028881567 -0.23770414 0.09007246

b1 f4 [128]
00000000: 2e6c 1b3e 523e a5bb 5b98 8e3d 4b27 753e
00000010: b1ff 00be 567b 893e 3ebc 4ebe 5fea 073e
00000020: a8c2 0dbf 708b 1fbe f15a 7abe a4ef 3b39
00000030: a65a d9bd adb0 813e ab58 8bbe cf71 2cbd
00000040: 24e9 bf3d c5e1 043e 1839 fdbc 1de0 483e
00000050: 7b85 253e f37e 7c3d 64c5 34be c80c 8dbe
00000060: 30d2 3a3e e9b4 aabe a838 333d 0d07 763d
00000070: d61a 373e cec5 103e e862 6e3e b615 1c3e
00000080: 19cf 913e 367b 97bc a3b4 fc3c ce79 9e3d
00000090: 16e0 613e 3416 8e3e 4dd8 23bc 9784 17bc
000000a0: 1a0a e1bd 5e9f 7d3c 1906 1fbd a879 83be
000000b0: 610d edba 666d 99bd 6887 913c 8e43 12be
000000c0: 0988 9bbe 5f63 9cbe 69a5 f23d 9521 80bd
000000d0: 7da1 d3bc 60e5 783d 0a51 cdbd 8cdd 443e
000000e0: 1475 983d 1b9a 07be 4e25 ab3c fb97 103e
000000f0: 4f60 863e b854 393d 69ba b83d d06c 92bd
00000100: 64d7 263e b73a bdbd e2ea 473e 5cb9 f13d
00000110: ac79 583d f25e fbbd 76fe e8bd d642 4ebe
00000120: 2e8d 0cbe 5121 6cbe f45c 013e 4d65 2f3d
00000130: 7cd7 84be da6e 253e 5c87 133e ae53 663e
00000140: 2611 a03e 0ec5 3cbe 8e03 2ebe 5a2c 373e
00000150: 55f6 d13d 7893 17bb d3d8 c53d a91d 8ebc
00000160: 7fce dcbd a553 0cbc b277 203e b582 023e
00000170: 14bd 4cbe 6eef 373e b73c d4bd 26c6 11be
00000180: a82a 0f3e 7447 813e 196a 103e d9ab 0e3e
00000190: 8c86 133e 4ba0 703a 10af 44be 17cb d739
000001a0: 54fa 32be 82fd 83be 1868 f33b 8be7 193d
000001b0: d4fe dfbc e939 6a3d 03cb 673c 253f a8be
000001c0: 7d3c 273e 5e37 04bc 4b64 04bd 7de0 533d
000001d0: 24a7 3a3e ce8c 31be 75f3 033e c222 363d
000001e0: 3932 49be f483 213e d468 3f3e 6ea1 4b3c
000001f0: e403 993d de45 4c3e 7fac 503d e583 d83d
0.15177986 -0.0050428296 0.06962653 0.2394077 -0.12597539 0.2685191 -0.20188996 0.13272999
-0.55375147 -0.15580535 -0.24448754 0.00017922983 -0.10612993 0.25330105 -0.27216086 -0.042100724
0.0937064 0.12976749 -0.030911013 0.19616742 0.161642 0.061644506 -0.17653424 -0.27548814
0.18244243 -0.33341148 0.043755203 0.060065318 0.17881331 0.14137957 0.23279917 0.15242657
0.28478315 -0.018491369 0.030847853 0.07738076 0.22058138 0.27751315 -0.010000301 -0.0092479205
-0.10988255 0.015479891 -0.038824175 -0.25678754 -0.0018085652 -0.07491569 0.017764762 -0.14283583
-0.30377224 -0.30544564 0.11847956 -0.06256405 -0.02583384 0.060765624 -0.100252226 0.19225138
0.07444206 -0.1324238 0.020891812 0.14120476 0.26245353 0.04524681 0.0901993 -0.071496606
0.16293103 -0.092397146 0.19523194 0.118029326 0.05285041 -0.12273969 -0.113766596 -0.20142683
-0.13725731 -0.23059584 0.12633115 0.042821217 -0.25945652 0.16155568 0.14407104 0.22492859
0.31263083 -0.18434545 -0.16993544 0.17888013 0.10252062 -0.002312867 0.096604966 -0.017348127
-0.107815735 -0.008564864 0.1567066 0.12745173 -0.19994003 0.17962429 -0.10363143 -0.14235744
0.13981116 0.25249827 0.14102973 0.13932742 0.14406794 0.0009179159 -0.19207406 0.0004115931
-0.17478305 -0.2577935 0.0074281804 0.037574332 -0.027343191 0.057184134 0.014147523 -0.32860675
0.16331668 -0.008069841 -0.03232221 0.05172776 0.18227822 -0.17338869 0.1288584 0.04446674
-0.19648065 0.15772992 0.18692333 0.012428625 0.07471445 0.19948527 0.050945755 0.10572032

W2 (column-major) f4 [64, 128]
00000000: b35e e23d 2edf 0b3d ce63 243d 4b4d cf3d
00000010: 888d 06be 5b7b f53d 13e7 1a3e 5ee9 15be
00000020: 3a18 e33d 83fb 18be 2456 77bd c6ea 983d
00000030: 136c e3bd 3a23 da3d 5bac ec3d 2e14 f53c
00000040: 202e 2cbe e798 b2bd 18e1 843d e916 2e3e
00000050: 265e 713d 4ade f4bd 6888 693d 1837 683d
00000060: a9bf e83d 9f64 3bbe 7a7a 893d 2c55 edbc
00000070: ff86 333e 77a8 9abd 4d7a f93d b7ec b002
00000080: 3ef7 12be 5d4f 0b3e 2b2e 2f3d 6bfa b3bd
00000090: ac0b dcbd 4c36 4a3d 9a01 28be 5cd1 1d3c
000000a0: 0d46 4ebd c3e3 d63c ca59 28be 3c1f 393d
000000b0: 3c8e 2b3e 508d 253e 0bc8 b53d 4f96 58bd
000000c0: 1e07 b13d 2c0d 12be cb02 78be 67e0 d5bd
000000d0: 7198 af3d 775a a63d 64f8 af3d 155d 52bd
000000e0: d2d2 a4bd 0229 403e d816 143c 6832 ecbc
000000f0: 3cdf 49be 94f0 e33d c0c6 ebbc c636 cfbd
00000100: cbd7 13be 6a50 a23d 5e11 e13b 4300 1bbd
00000110: d488 393e e6cb 0abe 8308 dfbc f18c 2e3e
00000120: 19ea 633b a4d9 d33c 7557 0fbc d387 52bd
00000130: a537 5d3e fdca 13bb 2962 2c3e cedf c4bd
00000140: f4cc 60bd c81f 2abe 9263 df3d 618d cfbc
00000150: 5761 533e 6fb4 3dbc ce68 533e 1c0a 71be
00000160: a470 313e bf36 a73d 17ba 463d ca51 ba3d
00000170: 2d81 673d 4297 82bc ca28 6abe c315 d807
00000180: ac09 023e d2c1 d83c 5303 a23d a1c8 b63d
00000190: 7259 40be ec8e 11be e5aa d53d 3156 1dbc
000001a0: 5795 1bbe bee2 593e b365 07be 6669 e73c
000001b0: f3a6 0bbe d4cd b63d fcac 00bd 6df3 81bc
000001c0: 2b9e 02be 5406 80bd 5c3d 72bc 0c30 d63d
000001d0: 7238 8e3d 0924 aebd 703c c83d b04b c93d
000001e0: 9803 153e 72a7 17be e2c2 f43c 794b efbd
000001f0: d306 f7bd dc8c 2e3e d51f 24be 4670 e43c
00000200: 699a 4ebc 59c2 ef3d 4414 1a3c b01b 13be
00000210: e28a f6bc c21a 09ba fe28 3cbe 8a53 8bbd
00000220: f6e4 04be 292e 2fbe 654a f7bb d4cf bebd
00000230: 8147 643d 6455 d23d 5ac5 0b3e f84e 26be
00000240: 0f8d 9dbd 1673 bbbd 037a c8bb 5098 d73d
00000250: ef56 59be 95a9 403e e40c 00be caf5 af3c
00000260: 6783 dc3d 3242 0b3e 4fbd 5e3d 9d3b 013e
00000270: 63a5 813d d04b a83d 9ac5 8ebd 62c0 1400
00000280: 2908 32bc 00bb bd3d dd6f 24bd 82f6 cd3c
00000290: 09b5 07be 5f02 4d3d d719 debd ed16 d6bd
000002a0: 4f3c c8bd 4a94 28be e522 e03d 2053 5dbd
000002b0: 7a1d 1e3e 3bb3 33bd ea0d a0bd c9e3 023e
000002c0: ecc7 623d 140f 013d 7f57 d63d dcb1 553d
000002d0: 2c88 5f3c b2b2 223e 58f3 533e f8d3 103e
000002e0: f28e 8cbd 2937 cd3d 9198 b0bc 4b4a f4bd
000002f0: 281e 6bbd aaaf 273c 800e 503e 9500 f03d
00000300: 3553 623d 093c 8e3c 2b77 11bd 7255 debc
00000310: 681e 513e 01b9 48be 09c3 033e 945d 033d
00000320: 272f 053c b05c 633d 8be3 123b 786f 203e
00000330: 9f8d 353e 58bd 12ba 49e5 4cbd e038 bebb
00000340: c716 3e3e e2d8 c3bd 248e 8f3c 5424 5b3d
00000350: 3317 1f3e f50d 10be 4d5e f53d 0d41 323e
00000360: b8d7 bbbd e7fa 85be 7e9b 223e 6850 67be
00000370: 678f 463e bfd1 fabb 4a9c 80bd e74f 0080
00000380: 8759 17bd c3dd 02bd fc60 8abd a2ed 23be
00000390: f721 94bd 2ad2 b8bd fdb9 453e de33 81bd
000003a0: 4504 fa3d 1965 ed3c 1653 4f3d efcd b7bd
000003b0: 190d 063e a3b5 bb3c 0e06 79bd d100 07be
000003c0: 0117 75be 390f 20bd 563b 98bd 7f77 d93d
000003d0: 2277 25bd 0000 0080 d605 893d be5c bd3d
000003e0: a7a3 c5bd a6ea bbbd 233a 08be 4a80 d53d
000003f0: ab67 5e3d 7385 923c 16a4 333d f87a 023e
0.11053219 0.034148388 0.040134244 0.10122164 -0.13139927 0.11986419 0.1512721 -0.14639804
0.11088605 -0.14939694 -0.060384884 0.074666545 -0.11104598 0.1065125 0.11556312 0.029916849
-0.1681447 -0.0872057 0.06488246 0.17000927 0.058927678 -0.11956461 0.057014853 0.056693166
0.11364681 -0.18300103 0.06712814 -0.028971277 0.17531966 -0.07551663 0.1218153 2.5996743e-37
-0.14352128 0.13604493 0.04276864 -0.08787998 -0.10744414 0.049368188 -0.16406861 0.009632435
-0.050359774 0.026231652 -0.16440502 0.045195803 0.16753477 0.16167188 0.08876046 -0.05287772
0.086439356 -0.14262837 -0.24219815 -0.10443192 0.08573998 0.081227235 0.085922986 -0.0513583
-0.08048023 0.18765643 0.0090386495 -0.02883263 -0.19714063 0.11129871 -0.028781295 -0.10117869
-0.14437787 0.07925494 0.0068685254 -0.037842046 0.18118602 -0.13554344 -0.027225738 0.17045952
0.0034776984 0.025860615 -0.008748879 -0.051399063 0.21603258 -0.002255141 0.1683432 -0.09613
-0.05488296 -0.16613686 0.109076634 -0.02533597 0.20642601 -0.011578663 0.20645449 -0.23539013
0.17328125 0.08164739 0.048517313 0.09097631 0.056519676 -0.015941266 -0.22867122 3.2512858e-34
0.12699002 0.026459608 0.0791079 0.08924986 -0.1878412 -0.14214677 0.10432986 -0.009603069
-0.15193687 0.21277902 -0.13222389 0.0282485 -0.13637905 0.08925977 -0.03141497 -0.015863145
-0.12755649 -0.06251207 -0.014785137 0.10458383 0.0694436 -0.08502967 0.097771525 0.09828889
0.14552152 -0.14809969 0.029878084 -0.11684317 -0.120618485 0.17045921 -0.16027768 0.027885567
-0.012610056 0.11706991 0.009404246 -0.1436603 -0.030095521 -0.00052301225 -0.18375012 -0.06803043
-0.12977967 -0.17107452 -0.0075467103 -0.09316984 0.055732254 0.10270193 0.13649502 -0.16241062
-0.076929204 -0.0915281 -0.0061180606 0.10527098 -0.21224569 0.1881469 -0.12504917 0.021479506
0.107672505 0.1359947 0.054379757 0.12620397 0.06330373 0.08217585 -0.06971283 1.905724e-39
-0.010866203 0.09264183 -0.040145744 0.025141958 -0.13252653 0.05005109 -0.10844772 -0.104535915
-0.09777128 -0.16462818 0.109441556 -0.054034352 0.15440932 -0.0438721 -0.07815154 0.12782206
0.05536644 0.03150852 0.10465907 0.052171573 0.013643306 0.1588848 0.20698297 0.1414336
-0.06863202 0.100202866 -0.021557124 -0.11928233 -0.057401806 0.010234753 0.20318031 0.11718861
0.055255134 0.017362611 -0.035514038 -0.027140353 0.20421755 -0.19601823 0.12867369 0.032071665
0.008128918 0.055508316 0.0022413458 0.15667522 0.17729805 -0.00055976724 -0.05002335 -0.00580512
0.18563376 -0.095628515 0.017523833 0.053501442 0.15536194 -0.14067824 0.11980877 0.17407627
-0.091720045 -0.26167986 0.15879628 -0.22589266 0.19390641 -0.007654398 -0.0627981 -2.8664e-41
-0.036950614 -0.03194977 -0.067567796 -0.16008618 -0.07233041 -0.090244606 0.1930923 -0.06308721
0.122078456 0.028978871 0.050616346 -0.089748256 0.13090934 0.02291376 -0.06079679 -0.13183905
-0.23934557 -0.039077017 -0.074331924 0.10618495 -0.040396817 -0.0 0.06690566 0.09246205
-0.09650355 -0.09175615 -0.13303427 0.1042486 0.054298084 0.0178859 0.043857656 0.12742221

b2 f4 [64]
00000000: bc0b 7bbe 97d8 633e 3c8a 453c 9d08 293e
00000010: ab7d bb3d 4503 a23d 9985 24be 9c3b dbbc
00000020: 6d29 3f3e 2b69 02be cb9d d7bd 0ac7 1d3e
00000030: f7f2 1e3e 7481 8fbd 5595 413e 22aa b5bd
00000040: 2ad9 8a3d 87b5 fd3d 6f31 f9bd 97b0 bdbd
00000050: 9608 e1bd a258 bc3c 3d9a 913d 09ae c93d
00000060: fecb b43d 30e6 e8bc d5f1 9c3d 7d71 09be
00000070: 1bc0 29bb 3706 d73d 7cd6 07be cc6a b7bd
00000080: 7930 4f3d 9a94 5abd 2c31 df3d e561 31be
00000090: 4ee9 81be 0f87 05be 7d07 923d 3a57 83ba
000000a0: 02a6 aa3c 31f7 163e f95f 053e 34bf 3cbd
000000b0: 1a8e 18bd d002 88bb ecbb 573e de63 663e
000000c0: 9a3f 56be b9d8 ec3d 288f 82bd 7759 83be
000000d0: 3a14 19be 7192 00bd 1093 343d ffa8 4fbe
000000e0: ce32 e23d 5e72 66bd 6866 933d 6550 19bd
000000f0: 341c 15be 06ac 49bc 638d 60be b6b0 a03d
-0.24516195 0.22250591 0.012056883 0.16507192 0.09154829 0.0791078 -0.16066588 -0.026761822
0.18668146 -0.12735431 -0.105281435 0.15407959 0.15522371 -0.07007113 0.18904622 -0.08870341
0.06779702 0.12388139 -0.12167632 -0.092621975 -0.10987966 0.022991482 0.07109497 0.09847648
0.08827971 -0.028430074 0.07663313 -0.13422199 -0.0025901857 0.10499232 -0.13265413 -0.08955917
0.050583337 -0.053364374 0.10898051 -0.173225 -0.2537331 -0.13039802 0.071303345 -0.0010020502
0.020831112 0.14742734 0.13024892 -0.046080783 -0.037244894 -0.004150726 0.2106778 0.22499034
-0.209227 0.11564774 -0.06374961 -0.25654194 -0.14949122 -0.031389657 0.044085562 -0.2027931
0.110448465 -0.056261413 0.07197267 -0.037430186 -0.1456154 -0.01230908 -0.21928935 0.07846205

W3 f4 [1, 64]
00000000: d709 43be 5537 a33c 253b 53be de65 2f3e
00000010: 117e 593e c27e 47be 493c 11bc 726b a4be
00000020: 2c42 a33d 4ba6 fdbd 80cf 753c 3d9b cd3c
00000030: 21d7 a83e 5aae ea3c 8def bb3d 830c dabd
00000040: a9ba 8d3e 0a8d 533e 3af1 69be 47c2 863e
00000050: e35f 88be 1b96 8d3e 0e60 3e3e c7ac 5fbe
00000060: 676a 963e 4eb6 eabe 28a7 2cbe c5fc 04be
00000070: 7ae7 ae3e 2690 36be 44b4 14bf 8e48 0080
00000080: 0707 54be b2f8 5abe f631 0ebe c896 21be
00000090: 849b bfbe dc82 7dbe 8b77 9a3e 3cde 123e
000000a0: 5e0c 93bd 8803 e8be d6dd 57bc b9bb d63d
000000b0: 651f 8cbe 927a 64be 2699 713e 97ef cbbe
000000c0: 9d5e a8bd e225 823e 6d9d 113f 4ed2 c6be
000000d0: 67ab 1a3f fd74 8dbe f09f 4b3e d2e4 153f
000000e0: d936 523e 9a53 b43e 72f5 0a3f 29cf 8c3e
000000f0: 8886 323e 1435 4dbe c873 8ebe d81a 003e
-0.19046722 0.019923845 -0.2062803 0.17128703 0.21239497 -0.19481948 -0.008864471 -0.32113224
0.07971606 -0.123852335 0.015003085 0.025098437 0.3297663 0.02864759 0.0917655 -0.10646918
0.27681473 0.20659271 -0.22845927 0.26320097 -0.26635656 0.27653584 0.1859133 -0.21843253
0.29378054 -0.45842212 -0.1686064 -0.12987049 0.34160978 -0.17828426 -0.58087564 -2.6028e-41
-0.20705806 -0.21383932 -0.13886246 -0.15780175 -0.37423337 -0.2475695 0.3016933 0.14342588
-0.07180093 -0.45315194 -0.013175448 0.10485024 -0.27367702 -0.22312382 0.23593578 -0.3983123
-0.08221171 0.25419527 0.5688084 -0.38832325 0.6041779 -0.27628317 0.1988523 0.5855228
0.20528735 0.35220033 0.5428077 0.275018 0.17434132 -0.20039779 -0.2782271 0.1251024

scaler_mean f4 [8]
00000000: 475e 7840 c4dd e441 72ed ad40 2a60 8c3f
00000010: 7f4e b244 9d34 4640 9692 0e42 222a efc2
3.8807542 28.608284 5.435235 1.0966847 1426.453 3.0969613 35.64315 -119.58229

scaler_scale f4 [8]
00000000: 04be f33f 46a2 4941 91c9 1840 94cc dd3e
00000010: b420 8e44 1a41 3941 10be 0840 a25b 0040
1.9042363 12.602118 2.3873026 0.43320143 1137.022 11.578394 2.1366005 2.0055928
